…
exp_dir = logs/FedCCMV12/GM_VGG8_PM_DualGM_v12-t5/dir/0.5/NC_50/date_20260402/time_094436
log_usage_path = logs/FedCCMV12/GM_VGG8_PM_DualGM_v12-t5/dir/0.5/NC_50/date_20260402/time_094436/acc.csv
log_cluster_path = logs/FedCCMV12/GM_VGG8_PM_DualGM_v12-t5/dir/0.5/NC_50/date_20260402/time_094436/cluster_acc.csv
==================================================

[Info] Experiment logs will be saved to: logs/FedCCMV12/GM_VGG8_PM_DualGM_v12-t5/dir/0.5/NC_50/date_20260402/time_094436


============= Running time: 0th =============
Using seed: 0
Creating server and clients ...
VGG8(
  (features): Sequential(
    (0): Conv2d(3, 64, kernel_size=(3, 3), stride=(1, 1), padding=(1, 1))
    (1): BatchNorm2d(64, eps=1e-05, momentum=0.1, affine=True, track_running_stats=True)
    (2): ReLU(inplace=True)
    (3): MaxPool2d(kernel_size=2, stride=2, padding=0, dilation=1, ceil_mode=False)
    (4): Conv2d(64, 128, kernel_size=(3, 3), stride=(1, 1), padding=(1, 1))
    (5): BatchNorm2d(128, eps=1e-05, momentum=0.1, affine=True, track_running_stats=True)
    (6): ReLU(inplace=True)
    (7): MaxPool2d(kernel_size=2, stride=2, padding=0, dilation=1, ceil_mode=False)
    (8): Conv2d(128, 256, kernel_size=(3, 3), stride=(1, 1), padding=(1, 1))
    (9): BatchNorm2d(256, eps=1e-05, momentum=0.1, affine=True, track_running_stats=True)
    (10): ReLU(inplace=True)
    (11): Conv2d(256, 256, kernel_size=(3, 3), stride=(1, 1), padding=(1, 1))
    (12): BatchNorm2d(256, eps=1e-05, momentum=0.1, affine=True, track_running_stats=True)
    (13): ReLU(inplace=True)
    (14): MaxPool2d(kernel_size=2, stride=2, padding=0, dilation=1, ceil_mode=False)
  )
  (avgpool): AdaptiveAvgPool2d(output_size=(1, 1))
  (classifier): Sequential(
    (0): Linear(in_features=256, out_features=256, bias=True)
    (1): ReLU(inplace=True)
    (2): Linear(in_features=256, out_features=100, bias=True)
  )
)
[FedCCMV12] Global Test Set Size: 15018
[FedCCMV12] OOD proxy loader: dataset=tinyimagenet, root=/home/mulsoap0504/FedCD/ood_data/cifar10_proxy_tinyimagenet_coco_nonoverlap_v2/train, size=131432

Join ratio / total clients: 1.0 / 50
FedCCMV12 clusters(init): 50, target: 0, GM period: 2, cluster period: 5, threshold: 0.1000, warmup: 5, cluster_mode: hp_proto, offload_metric: none, gm_train_sync_only: False, server_ood_reg: True, ood_proxy: tinyimagenet, server_pm_pool_source: cluster_pm, use_cluster_teacher: False, refresh_pm_from_cluster_gm: False
…
