…
split_train = False
head_lr = 0.005
head_bs = 10
cw_layer_num = 1
add_proto = False
use_true_dist = False
batch_eval = False
clip_weight = False
batch_eval_id = 0
weight_decay = 10.0
exp_dir = /home/mulsoap0504/FedCD/FedCD-Baseline/logs/cifar10/FedProx/GM_VGG8/dir/0.1/NC_20/date_20260426/time_171320
log_path = /home/mulsoap0504/FedCD/FedCD-Baseline/logs/cifar10/FedProx/GM_VGG8/dir/0.1/NC_20/date_20260426/time_171320/acc.csv
==================================================

============= Running time: 0th =============
Using seed: 2
Creating server and clients ...
VGG8(
  (features): Sequential(
    (0): Conv2d(3, 64, kernel_size=(3, 3), stride=(1, 1), padding=(1, 1))
    (1): BatchNorm2d(64, eps=1e-05, momentum=0.1, affine=True, track_running_stats=True)
    (2): ReLU(inplace=True)
    (3): MaxPool2d(kernel_size=2, stride=2, padding=0, dilation=1, ceil_mode=False)
    (4): Conv2d(64, 128, kernel_size=(3, 3), stride=(1, 1), padding=(1, 1))
    (5): BatchNorm2d(128, eps=1e-05, momentum=0.1, affine=True, track_running_stats=True)
    (6): ReLU(inplace=True)
    (7): MaxPool2d(kernel_size=2, stride=2, padding=0, dilation=1, ceil_mode=False)
    (8): Conv2d(128, 256, kernel_size=(3, 3), stride=(1, 1), padding=(1, 1))
    (9): BatchNorm2d(256, eps=1e-05, momentum=0.1, affine=True, track_running_stats=True)
    (10): ReLU(inplace=True)
    (11): Conv2d(256, 256, kernel_size=(3, 3), stride=(1, 1), padding=(1, 1))
    (12): BatchNorm2d(256, eps=1e-05, momentum=0.1, affine=True, track_running_stats=True)
    (13): ReLU(inplace=True)
    (14): MaxPool2d(kernel_size=2, stride=2, padding=0, dilation=1, ceil_mode=False)
  )
  (avgpool): AdaptiveAvgPool2d(output_size=(1, 1))
  (classifier): Sequential(
    (0): Linear(in_features=256, out_features=256, bias=True)
    (1): ReLU(inplace=True)
    (2): Linear(in_features=256, out_features=10, bias=True)
  )
)
[Baseline] Global Test Set Size: 10000

Join ratio / total clients: 1.0 / 20
Finished creating server and clients.
Distributing models:   0%|          | 0/20 [00:00<?, ?it/s]                                                           
-------------Round number: 0-------------

Evaluate global model
Testing clients:   0%|          | 0/20 [00:00<
…
